…
2022-04-30 14:57:44.245862: W tensorflow/stream_executor/gpu/asm_compiler.cc:111] *** WARNING *** You are using ptxas 10.2.89, which is older than 11.1. ptxas before 11.1 is known to miscompile XLA code, leading to incorrect results or invalid-address errors.

You may not need to update to CUDA 11.1; cherry-picking the ptxas binary is often sufficient.
Model: "discriminator"
_________________________________________________________________
 Layer (type)                Output Shape              Param #   
=================================================================
 input_1 (InputLayer)        [(None, 128, 128, 1)]     0         
                                                                 
 conv2d (Conv2D)             (None, 62, 62, 64)        1664      
                                                                 
 layer_normalization (LayerN  (None, 62, 62, 64)       128       
 ormalization)                                                   
                                                                 
 leaky_re_lu (LeakyReLU)     (None, 62, 62, 64)        0         
                                                                 
 conv2d_1 (Conv2D)           (None, 29, 29, 128)       204928    
                                                                 
 layer_normalization_1 (Laye  (None, 29, 29, 128)      256       
 rNormalization)                                                 
                                                                 
 leaky_re_lu_1 (LeakyReLU)   (None, 29, 29, 128)       0         
                                                                 
 conv2d_2 (Conv2D)           (None, 14, 14, 256)       295168    
                                                                 
 layer_normalization_2 (Laye  (None, 14, 14, 256)      512       
 rNormalization)                                                 
                                                                 
 leaky_re_lu_2 (LeakyReLU)   (None, 14, 14, 256)       0         
                                                                 
 last_conv (Conv2D)          (None, 7, 7, 512)         1180160   
                                                                 
 layer_normalization_3 (Laye  (None, 7, 7, 512)        1024      
 rNormalization)                                                 
                                                                 
 leaky_re_lu_3 (LeakyReLU)   (None, 7, 7, 512)         0         
                                                                 
 D_patch (Conv2D)            (None, 5, 5, 1)           4609      
                                                                 
=================================================================
Total params: 1,688,449
Trainable params: 1,688,449
Non-trainable params: 0
_________________________________________________________________
Model: "generator"
_________________________________________________________________
 Layer (type)                Output Shape              Param #   
=================================================================
 input_2 (InputLayer)        [(None, 128)]             0         
                                                                 
 dense (Dense)               (None, 4096)              524288    
                                                                 
 batch_normalization (BatchN  (None, 4096)             16384     
 ormalization)                                                   
                                                                 
 leaky_re_lu_4 (LeakyReLU)   (None, 4096)              0         
                                                                 
 reshape (Reshape)           (None, 4, 4, 256)         0         
                                                                 
 up_sampling2d (UpSampling2D  (None, 8, 8, 256)        0         
 )                                                               
                                                                 
 conv2d_3 (Conv2D)           (None, 8, 8, 512)         1180160   
                                                                 
 instance_normalization (Ins  (None, 8, 8, 512)        1024      
 tanceNormalization)                                             
                                                                 
 leaky_re_lu_5 (LeakyReLU)   (None, 8, 8, 512)         0         
                                                                 
 up_sampling2d_1 (UpSampling  (None, 16, 16, 512)      0         
 2D)                                                             
                                                                 
 conv2d_4 (Conv2D)           (None, 16, 16, 256)       1179904   
                                                                 
 instance_normalization_1 (I  (None, 16, 16, 256)      512       
 nstanceNormalization)                                           
                                                                 
 leaky_re_lu_6 (LeakyReLU)   (None, 16, 16, 256)       0         
                                                                 
 up_sampling2d_2 (UpSampling  (None, 32, 32, 256)      0         
 2D)                                                             
                                                                 
 conv2d_5 (Conv2D)           (None, 32, 32, 128)       295040    
                                                                 
 instance_normalization_2 (I  (None, 32, 32, 128)      256       
 nstanceNormalization)                                           
                                                                 
 leaky_re_lu_7 (LeakyReLU)   (None, 32, 32, 128)       0         
                                                                 
 up_sampling2d_3 (UpSampling  (None, 64, 64, 128)      0         
 2D)                                                             
                                                                 
 conv2d_6 (Conv2D)           (None, 64, 64, 64)        73792     
                                                                 
 instance_normalization_3 (I  (None, 64, 64, 64)       128       
 nstanceNormalization)                                           
                                                                 
 leaky_re_lu_8 (LeakyReLU)   (None, 64, 64, 64)        0         
                                                                 
 up_sampling2d_4 (UpSampling  (None, 128, 128, 64)     0         
 2D)                                                             
                                                                 
 conv2d_7 (Conv2D)           (None, 128, 128, 1)       577       
                                                                 
 instance_normalization_4 (I  (None, 128, 128, 1)      2         
 nstanceNormalization)                                           
                                                                 
 leaky_re_lu_9 (LeakyReLU)   (None, 128, 128, 1)       0         
                                                                 
 conv2d_8 (Conv2D)           (None, 128, 128, 1)       10        
                                                                 
 gen_img (Activation)        (None, 128, 128, 1)       0         
                                                                 
=================================================================
Total params: 3,272,077
Trainable params: 3,263,885
Non-trainable params: 8,192
_________________________________________________________________

epoch 1/2000 
....
 this epoch costing time = 14.94
epoch 2/2000 
....
 this epoch costing time = 4.52
epoch 3/2000 
…
